android/app/src/main/assets/emotion_model_V01.tflite (tflite, 66144 bytes, 2 tensors)

sequential_1/dense_1/BiasAdd/ReadVariableOp f4 [7]
000000 fb e9 1f 3e 4d 47 04 be 42 1c 18 be 13 9c 93 3d
       0.156166 -0.12917824 -0.1485453 0.07207503
000010 55 1e cd 3e 6a e2 03 bf 87 f8 27 3e
       0.40062204 -0.51517355 0.164034

sequential_1/dense_1/MatMul f4 [7, 2304]
000000 00 17 bf bb 04 dc 81 bd 6d c0 97 bc c2 75 12 bc
       -0.0058315992 -0.06340793 -0.018524373 -0.008939208
000010 23 6e 49 3d f6 7d 81 3d f5 19 20 bc 67 fe 3d 3c
       0.0491773 0.06322853 -0.009771814 0.011596299
000020 a1 86 20 3c ae f7 b2 bc 37 c9 57 bc 15 db 0d 3d
       0.009797723 -0.021846619 -0.013170532 0.03463276
000030 e3 79 8c 3d 8b bd 54 3d 95 50 83 3d 68 e0 29 bd
       0.068591855 0.051938575 0.06411854 -0.041473776
000040 8a e1 31 3d 64 da e9 b8 75 f0 14 bd e2 dd 17 bc
       0.04342798 -0.00011150984 -0.03636213 -0.00926921
000050 90 72 08 3d 3d 15 b8 bc 5e 66 17 3d f0 1a 57 3b
       0.03331238 -0.022471065 0.03696286 0.0032822452
000060 d0 77 1b bd f0 44 9b 3c e7 ad e5 bc 53 4c ae 3c
       -0.03795606 0.01895377 -0.028037025 0.021276629
000070 28 3c 3a 3d 72 9e 83 bb d3 a5 b0 3c 74 fd 88 3d
       0.045467526 -0.004016691 0.021563446 0.06688967
000080 7a cb 82 bb 5b e7 ab 3c 89 b6 ef 3b 4c cc a3 3c
       -0.0039915415 0.020984342 0.007315461 0.019994877
000090 c8 f6 4f ba bb 04 06 bc 04 36 23 3d 44 d9 08 3c
       -0.00079331966 -0.008179839 0.039846435 0.008352581
0000a0 88 da 4c 3c e5 b9 15 bc fc a6 e4 bc 84 d6 16 bd
       0.012503274 -0.009138559 -0.027911656 -0.03682567
0000b0 c5 3b ce 3c c4 03 40 bb 79 e5 04 3d b3 3d b6 3c
       0.025174985 -0.002929912 0.032445405 0.022246217
0000c0 4d a7 bc bc 8b a4 90 3c 58 3d f7 3c cf 5a ef 3a
       -0.023028994 0.017656585 0.030180618 0.0018261316
0000d0 41 77 8d bc 43 61 03 3d f6 70 9d 3c 9f 9d 1d bc
       -0.017268779 0.032075178 0.019218903 -0.009620099
0000e0 03 51 c2 bb 84 76 04 3d cf 89 ff bb ad c0 dc 3c
       -0.0059300675 0.032339588 -0.0077984105 0.026947344
0000f0 4d 50 fe 3a a5 cf e2 3c ab ac 06 bd 51 b4 85 bc
       0.0019402594 0.027686903 -0.032879513 -0.016321333
000100 bd a9 e2 bc 99 cd 8b 3c e4 06 82 bd aa 65 42 bd
       -0.027668828 0.01706581 -0.063489705 -0.047460236
000110 69 70 ef 3c 33 50 88 3c 36 ba 51 3c 58 32 41 3d
       0.029228406 0.016639804 0.012800744 0.047167152
000120 ce 89 4d bd b5 0e 47 3d 69 91 c8 3c 98 4a 61 bc
       -0.05018025 0.04859801 0.0244834 -0.013750695
000130 e7 67 9b bc 20 90 f1 3c 42 59 a7 bc a0 b0 c2 bc
       -0.018970443 0.02948767 -0.020428304 -0.023765862
000140 a3 e1 b9 bc 9d 9f 70 3c eb 44 11 bc 33 58 2b bd
       -0.0226906 0.014686492 -0.008866529 -0.04183216
000150 cb 4a 9b 3c dc 92 eb 3b 1a 1e d2 bc 4b dc 40 3d
       0.018956563 0.007189138 -0.02564912 0.047085088
000160 88 5c 4c 3c da f6 1b bd 16 ee d5 bb 59 02 25 3d
       0.012473233 -0.038077213 -0.006528626 0.040285442
000170 c9 59 c8 bb 31 8d 35 bd 88 f4 60 bb 4a dc 2e 3d
       -0.006114219 -0.044324104 -0.003432544 0.042690553
000180 78 53 a3 ba 51 cc 46 bd 59 6f 1b 3d 66 e6 73 3c
       -0.0012460789 -0.048534695 0.037947986 0.014886474
000190 ee 01 b8 bc a2 ff 8b b8 f8 c1 16 bd 88 7c b3 3b
       -0.022461858 -6.675652e-05 -0.036806077 0.0054774918
0001a0 7f f1 0b 3d 56 e6 1a 3d 5b 3b 97 3c 44 57 73 3c
       0.034165855 0.03781732 0.01846092 0.014852349
0001b0 53 0c 10 bd 6d 90 88 3c e4 4b d5 3c 77 a1 35 bd
       -0.035168003 0.01667043 0.026037164 -0.044343438
0001c0 6d 46 0e 3d 65 41 86 bc 8e 08 2e bd 3d b3 a4 3c
       0.034735132 -0.016388604 -0.042488627 0.020104999
0001d0 a9 bf ed 3c de 87 22 3c c7 60 b2 3c 18 70 1f bd
       0.029022055 0.009920089 0.021774663 -0.03892526
0001e0 de 76 fa bb 26 dd 56 bd 25 0b 41 bd 8f 2b 29 bd
       -0.0076435646 -0.052456997 -0.04712977 -0.041301306
0001f0 55 50 fc bc 51 d1 2b bc 82 3e 0e bc 96 7c 06 3c
       -0.030800024 -0.010486917 -0.008681895 0.008208415
000200 1e 77 ee 3c 79 47 aa 3c 9f 27 9e bc 2e 58 60 3b
       0.029109534 0.020786034 -0.019306002 0.0034232247
000210 2a a5 56 bc 28 8a 71 3c ea 39 2b bd e6 cc 3c bd
       -0.013100902 0.014742412 -0.041803278 -0.046093844
000220 58 82 ab 3a 8b 9b 10 bd 18 fd 26 bc 40 79 d3 3c
       0.001308511 -0.035304587 -0.010192178 0.025814652
000230 53 29 f5 3c 15 d3 d0 bc d1 64 a9 3c b0 fd 6c bb
       0.029926931 -0.025491277 0.020677956 -0.0036161952
000240 86 9e 20 3c ac a6 18 bc 29 11 10 bd d7 33 b4 bc
       0.00980342 -0.009317081 -0.035172615 -0.021997375
000250 90 fc 74 bc f6 a1 e2 bc 52 70 93 3c 27 90 9b bb
       -0.014952794 -0.02766512 0.017997894 -0.004747409
000260 5f 2c 27 3d bf 54 f1 bb 04 55 06 bd 3d 67 6b bd
       0.0408138 -0.007364839 -0.03279592 -0.057471503
000270 ec ac d9 bc 93 d8 24 bd 52 51 cd bc 1c c8 06 3d
       -0.026571713 -0.040245604 -0.02506319 0.032905683
000280 d0 7b 1a bd 3d 74 d0 3c d9 ea 13 3d aa 7b c9 3c
       -0.037715733 0.025446052 0.03611264 0.0245951
000290 06 ed 90 bc cf 1f 12 3d ef 4d 92 3c 58 4d 3f 3d
       -0.017691147 0.035674866 0.017859427 0.04670462
0002a0 16 d7 18 bd d7 41 a6 3b 7e 7c 27 bc e4 ca 3b 3d
       -0.037314497 0.0050737667 -0.010222552 0.04584779
0002b0 1f b0 6a bc 97 6a d3 3c e6 5b 55 bb 97 80 c5 3b
       -0.014324217 0.025807662 -0.0032555996 0.006027292
0002c0 4d bb 70 bc b1 7c bd bc 8a e1 f6 bb 83 c3 54 3d
       -0.0146930935 -0.023130747 -0.0075342106 0.051944267
0002d0 26 f3 21 bd 5c a6 73 3c 62 db 12 bd d4 ae b6 bc
       -0.039538525 0.014871206 -0.03585375 -0.022300161
0002e0 42 c2 38 3d 48 44 2e 3d 8b b5 2f 3d 46 63 da 3b
       0.045107134 0.042545587 0.042897742 0.0066646663
0002f0 28 0b 8d 3c 68 0e 32 3c 86 05 59 bc 46 e2 8f bb
       0.017217234 0.0108676925 -0.013245946 -0.0043909876
000300 9f bd d9 bc f9 e8 b5 3c b5 e5 8a bc 54 77 24 3d
       -0.026579676 0.022205817 -0.016955236 0.040152863
000310 12 f9 9c 3b 7b 92 04 bd 12 8b 1b 3c 09 3a 5c bd
       0.0047904337 -0.032366257 0.009493606 -0.053766284
000320 43 92 e1 3c 80 25 32 3d 73 95 16 3d 84 e4 25 bd
       0.027535563 0.043492794 0.03676362 -0.040501133
000330 9c 7b 88 3c 91 82 37 bc 26 d7 3f 3c b0 9d 90 3c
       0.016660504 -0.011200563 0.01170901 0.017653316
000340 ea e4 30 bd d2 3d 63 bd 62 45 23 3d 1d cd e9 3c
       -0.04318706 -0.05547888 0.03986109 0.028540188
000350 d8 ab 05 bc d1 98 c0 bc 4d af f1 3b e6 53 25 3d
       -0.0081586465 -0.023510369 0.007375634 0.040363215
000360 e8 bd cd bc 9f 57 83 bc cf 02 82 bc bb f6 27 3c
       -0.025114968 -0.016032992 -0.01587048 0.010251696
000370 a1 d4 cc bc da 86 0c bd 08 3a 31 3d 87 b0 1b 3d
       -0.025003733 -0.034308292 0.043268234 0.038010146
000380 d1 00 ea 3c ee 99 d3 3c e3 2a 0e 3d 0c 4d 2b 3b
       0.028564842 0.025830235 0.03470887 0.0026138453
000390 0a c6 38 bd 3f b2 12 bd 73 ac be 3c 1c b1 c1 3c
       -0.04511074 -0.03581452 0.02327559 0.023644023
0003a0 3c 43 0f 3d 0e ed f3 3c 69 1d c5 3c 63 c3 dd bb
       0.03497623 0.029776122 0.024061875 -0.0067676767
0003b0 f5 55 6b bd 9d 36 2b bd 66 d1 8f 3c db cb 30 3d
       -0.057455022 -0.04180013 0.017555904 0.04316316
0003c0 84 fd 23 bc 91 ef 28 bd 92 64 96 bc e3 1f 78 3d
       -0.010009173 -0.041244093 -0.018358503 0.060577285
0003d0 2c bb 09 bb 03 8b 87 3c e8 ff 7e 3c 4a c3 00 3d
       -0.0021016104 0.016545778 0.0155639425 0.031436242
0003e0 89 8d 01 bc 27 34 bc 3c 98 0e 96 bc dd 70 20 3c
       -0.00790728 0.022974087 -0.018317506 0.009792534
0003f0 28 93 fd 3c 2b 52 27 3d 92 45 2a bd 5f ee c3 bb
       0.030953959 0.040849846 -0.041570254 -0.005979344
